saved_models/nge_parallel_model.npz (npz, 31224 bytes, 17 tensors)

processor.mp_layer.1.update_fn.bias f4 [32]
00000000: 4bb4 95bb d67b 8c3f 527c 913d 8a37 183f
00000010: 4f7a a6bf 3723 dcbe 88bd 36bf 22e4 7abe
00000020: 5118 8ebe e23d cc3e b56b 11be 73df c0be
00000030: be19 f2be e19e f73b 1f91 633c c54c 95be
00000040: 83cd 66be 641d 1f3e 25ed dcbc 8fe6 d53d
00000050: af30 6a3c 5014 c63c 017c a63e 5398 fc3e
00000060: 9540 6b3f d808 7cbc 52ce 303f de57 b93f
00000070: 7977 ea3e eadb 8abe f178 c73e 8a12 d83e
-0.0045686117 1.0975292 0.0710379 0.59459746 -1.3006076 -0.42995617 -0.7138295 -0.24501088
-0.27752927 0.39890963 -0.14201243 -0.37670478 -0.47285265 0.0075567816 0.01388958 -0.29160133
-0.22539334 0.15538555 -0.026968548 0.10444366 0.014293834 0.024179608 0.32516482 0.49334964
0.9189542 -0.015382968 0.6906482 1.447994 0.45794275 -0.27120906 0.38959458 0.42201644

processor.mp_layer.1.update_fn.weight f4 [32, 32]
00000000: b3dc 19bf 5485 b1be 66ba 683d 61e7 e5bd
00000010: d06f 23bf 0b23 8abd 93e6 423f 69c0 743e
00000020: 3272 a8bf 8fd1 acbc b048 c13d 329e 32be
00000030: 7d27 cf3d bb70 ac3e 493b 95bf d101 bfbe
00000040: f67a b8be c19d 7cbf b210 75bf 6642 8c3d
00000050: 9ab7 09be 9ab5 b2bf f694 a3bf 7c73 c7bd
00000060: 51a5 56be aec9 ff3c dbc4 95be 4d85 d1be
00000070: 4671 e4bc f48d 89be b21a bf3e 289e 1bbf
00000080: 2bc2 26bf 64b2 13bf 4221 743e 0b4b 90bf
00000090: 5f36 53bf 6549 1f3e 1dc1 28be 0b16 fabf
000000a0: 5f05 40bf 30a8 613e 828b 743e 9d9a dfbe
000000b0: 4b9a e6bb aac6 53c0 d345 afbb ed25 8a3d
000000c0: 7611 183e bd40 10c0 bce8 b03d 3865 c0bd
000000d0: 3a19 b43e 70c6 a0bf 69f0 c63d fbc3 38c0
000000e0: 05a8 803d d80d 7fbf 2207 c03e 4864 6bbe
000000f0: 2b6a b0be 517d 6ebf b6ba 393d db51 053f
00000100: 1714 993e 1f3a 633f b7be a83e 81c8 1abf
00000110: 48d0 e6be 4818 a13d decc 0b3d 7356 8dbf
00000120: 5a5d 5cbe c124 2fbe 4d9a 97be 29eb 8ebd
00000130: 56fe 52be 384b 69be 3197 f9bd 7356 73bb
00000140: 4b21 09bf b84d e3be 84ad b8be b270 9cbe
00000150: 52d4 62be 88dc ba3e 48ee 99be 2658 e03e
00000160: 8a96 9bbe f2d5 41be b51d e6bd 3bee b6be
00000170: 9114 a13d ec79 103e ec0a 8dbe d43d 403f
00000180: 557d 613e c0a9 32c0 afd8 b53e 80ba 5ebd
00000190: 5b7d 643d 011b 033e 269e d7bf 6abe c43d
000001a0: 1d36 883e bf0e 1c3e faa1 54bf 8512 12c0
000001b0: ff92 853e 0af5 18bf 3684 a83e f482 913d
000001c0: a858 54be f2c5 cfbe 27b9 e23e f771 d23e
000001d0: fb50 c1bd f737 e83e 45cd a03e f02b 35bf
000001e0: 2bb5 6a3e 1122 be3d c6df 633e 8727 adbf
000001f0: e3ea 60bf 4a0f 873e 4765 0dc0 fa18 863e
00000200: fbe2 7b3e 2582 793e 7510 b73e d81e 4e3e
00000210: 416a 07be 118a fabe 31de 41be 3803 933e
00000220: c84d 5e3e f4ff 953c c921 86be 6b3f 953e
00000230: 5fb7 1c3d 4f2a 6f3e ffc7 ba3e 30e8 b1be
00000240: e9ff debe eff6 793d d67a ca3e 79b7 a23e
00000250: 5c4d 07bf e66f 833e ad0c a03d 7b7e ce3d
00000260: 64f2 ce3e 1f28 a2bc 9522 703e 8a6a 253e
00000270: a886 9c3e ae81 a13d 04ec d83e 5e2d c73e
00000280: bda3 6cbe e988 f73d 9b69 7ebd 667f c23d
00000290: d7a1 f9bd 31f6 e0bc 7532 4b3d 9b34 01be
000002a0: 7da8 13be 7d95 e3ba 1c33 423c 3751 84bd
000002b0: ffcc 2fbe 0da1 55be 128f 1bbd 34d4 08be
000002c0: 4438 9cbd ff3e 45bd 971f fabd c3ff 9bbd
000002d0: e79d 80bd 1b5f 09bd ba49 08be 42f4 28be
000002e0: e2b3 97bd 9a73 80be 828b 18bc 1321 0dbe
000002f0: ac3b 19bd 8d95 28be 331e 3fbd 3429 41be
00000300: cc3e 3d3e 8842 473e 876c a63e caee 313f
00000310: 0cec 6b3e 6b6c 95bd ecee 7e3e 1656 103f
00000320: f7a0 6a3d d057 d43e d678 563e 7552 e8bc
00000330: 434c 043d 513a c03e 4360 083f ff03 bdbe
00000340: aad3 263e fdf7 d63e 41ff 623e 3dc7 313e
00000350: 28fc 96be dca3 733e d7aa 8c3e 875f e43d
00000360: df85 8c3d af25 143e eed9 06bf 4823 a9bc
00000370: bf05 9cbe 8d3d ea3e b223 9fbe f2a3 173e
00000380: 0258 4abe 45f3 aebc ab9e 84be 326b e1bd
00000390: 3be7 68bd ec42 6fbe 2db3 56bd d3b0 21bd
000003a0: 1f47 97bd b93b d2bd c853 9cbd e05d 2cbe
000003b0: d541 32be 6f42 a0bd dcde 73bd e836 bdbd
000003c0: 86f2 553a 1bf4 efbd d9de 39be da4a bbbb
000003d0: bd15 50bd ace2 e43c fb4c 43bd c4af 09be
000003e0: aefd ebbd 5a77 1bbe 5630 64be ab8b 2fbe
000003f0: 16e5 013d 46cf 4abd a222 ae3c 3b2b 09be
-0.60102385 -0.34672034 0.05681839 -0.11225773 -0.6384249 -0.06744965 0.7613308 0.23901524
-1.315985 -0.02109602 0.09437692 -0.17443159 0.10114954 0.33679757 -1.1658717 -0.37306073
-0.36031312 -0.98678213 -0.957286 0.06848602 -0.13448945 -1.396167 -1.2779834 -0.09738824
-0.209615 0.031224098 -0.2925175 -0.40922013 -0.027886044 -0.26866114 0.37325054 -0.607882
-0.65140027 -0.5769408 0.23840812 -1.1272901 -0.8250484 0.15555342 -0.16479917 -1.9537977
-0.75008196 0.22036815 0.23881343 -0.43672648 -0.007037436 -3.3090005 -0.0053489 0.06745515
0.14850411 -2.2539513 0.086381406 -0.09394306 0.35175496 -1.2560558 0.09713823 -2.8869617
0.06282047 -0.996305 0.37505442 -0.22987473 -0.34456 -0.9315997 0.045344077 0.52078027
0.2989814 0.8876056 0.32958004 -0.60462195 -0.4508078 0.078659594 0.034130923 -1.1042007
-0.21519986 -0.17103864 -0.2960991 -0.06978447 -0.20604834 -0.227826 -0.121870406 -0.0037130385
-0.53566426 -0.44395232 -0.36069882 -0.3055473 -0.22151306 0.36496377 -0.30064607 0.43817252
-0.3038829 -0.1892927 -0.11236135 -0.3572863 0.07865251 0.1410901 -0.27547395 0.7509434
0.22020467 -2.7916107 0.3551688 -0.05437708 0.05578361 0.1280327 -1.6845138 0.09606631
0.26603785 0.1524 -0.83059657 -2.2823803 0.26088712 -0.597489 0.3291337 0.071050555
-0.20736945 -0.40580708 0.44281885 0.41102573 -0.09439274 0.45355198 0.31406608 -0.7077017
0.22920673 0.092838414 0.22253332 -1.3527688 -0.8785841 0.26378852 -2.2093065 0.2619093
0.24598305 0.24366052 0.35754743 0.20128953 -0.13224126 -0.4893346 -0.18932416 0.28713393
0.21709359 0.018310525 -0.2619765 0.29149947 0.038260814 0.23355983 0.3648071 -0.34747458
-0.4355462 0.06102651 0.3954684 0.31780604 -0.52852416 0.2567131 0.07814918 0.10082718
0.40419304 -0.019794522 0.23450692 0.16153923 0.30571485 0.078860626 0.42367566 0.389018
-0.23109336 0.120866604 -0.062112432 0.094969556 -0.121890716 -0.027461143 0.049608666 -0.12617724
-0.14419742 -0.0017363277 0.011853006 -0.06460803 -0.17168044 -0.20862217 -0.03797824 -0.13362199
-0.07627919 -0.04815578 -0.122130565 -0.07617142 -0.062801175 -0.033537965 -0.13309374 -0.16499427
-0.07407357 -0.25088197 -0.009310605 -0.13782148 -0.037410423 -0.16463299 -0.04665966 -0.18863374
0.18480986 0.19458973 0.32504675 0.6950499 0.23039263 -0.0729607 0.24895829 0.56381357
0.057282414 0.41473246 0.20944533 -0.028359631 0.03229929 0.37544492 0.53271884 -0.3691711
0.16291681 0.41986075 0.22167684 0.1736116 -0.29489255 0.23792976 0.2747409 0.11151033
0.068614714 0.144675 -0.52676284 -0.020646706 -0.30473134 0.45750085 -0.3108192 0.14808634
-0.19760135 -0.021356234 -0.25902304 -0.11006774 -0.056861144 -0.23365372 -0.05241697 -0.039475273
-0.07386612 -0.102652974 -0.076331675 -0.16832685 -0.17407925 -0.07825171 -0.059538707 -0.09238988
0.0008161444 -0.11716481 -0.18151416 -0.00571571 -0.05080198 0.027940117 -0.047680836 -0.13445956
-0.11522995 -0.15182248 -0.22284064 -0.17143123 0.031712614 -0.049514078 0.021256749 -0.13395397

processor.mp_layer.1.target_message_fn f4 [1, 32, 32]
00000000: c185 b1bf 1b1b 81bf 3f37 3bbf 8947 c13e
00000010: a6b2 5f3e a346 3c3f d6a7 8b3f a8ce bd3e
00000020: 162d 51bf 54eb a4be 4dce 403e 28a0 ac3e
00000030: 95e6 b8bf 9a58 ee3e 297d 2e3e ed06 5cbf
00000040: 6453 9bbf 50e1 86be f5cf f4be abea efbd
00000050: 3f19 65bf 35f6 3bbe 5b08 69be 61a6 e7be
00000060: 2b08 543d e554 c53c 28cf 2abf 0e25 cb3e
00000070: 66ac 78bf 42db 3d3e aefb 0bbf 06fd 3a3f
00000080: 02cc c8be ee56 1fbf c925 b4be 52f0 1abe
00000090: 3d77 41be 5a4d 5ebe 62b6 8fbe ba7e 043f
000000a0: a887 fb3e 2464 84bd 88eb 0d3f 8b38 353f
000000b0: 6cae c7bf 3628 3ebf 76ca 043f b01b cbbf
000000c0: 3794 81be cc84 2ebf 6a74 9dbf a2f6 44be
000000d0: 9e11 f3bd 281b d43d dcc6 33bf 5b37 cc3d
000000e0: 51e5 563f 2bfd 9f3d b2a2 0ebf caab b7bf
000000f0: 9393 003e f4ea e5be 92ce 2c3f 813d 5abf
00000100: f29c 36bf 5f6f 61bf d687 31bf e4dd 9abe
00000110: c00f febf c021 2ec0 4e57 3b3c a070 2f3e
00000120: b2cc 99bc f0e9 01bf 1991 8dbc 83fb c4bf
00000130: 1249 41be baa7 a53f f683 91bf 3c14 b3be
00000140: d0b1 8d3f 4939 32bd 7fe2 7abf 2fc1 b2bf
00000150: cd91 0a3e 9d83 eb3c 92f7 8abe 6f99 813d
00000160: 59b5 a93e 522a a13d 123d 65be 907a e93d
00000170: 80b3 70bf 7465 123e e17c ffbe 78f0 7fbf
00000180: 45e8 75bf 0ab3 913f b24e c03e 26c5 073f
00000190: d423 16bd 939d eebf a76a 8b3f 141d 51bf
000001a0: 1164 573f 3ba8 333f c139 2d3f f922 ca3f
000001b0: edee ca3b 59ce 8fbf 980d adbe 7790 8dbe
000001c0: 558d 1cbf 70bd 893f 56b7 9f3f 7146 f03f
000001d0: a89d de3e e4ef e6be f0d3 11bf e7f2 653f
000001e0: 81d3 a83e b62c 403e 84e3 67bf 0346 fe3f
000001f0: 0323 1f3f 6c66 50bf 1e7f 1440 9710 83bf
00000200: ef53 00bb b1b2 3cbf f4dc 8ebf e818 b73d
00000210: 1990 263f cd6e 4fbf 2162 51be 5f1c fa3e
00000220: cb7e a6bd bed1 853f cfc3 79bf 8381 76be
00000230: 1bf5 d23f 6dc6 1cbf 9e48 5c3f cde1 dc3f
00000240: 496a df3f f975 9f3e 7b9d edbf 0c11 c5bf
00000250: 028b dcbe 8251 07be 0faa 78be e775 be3f
00000260: 46a9 343e 780c 3b3f 7f7c b33f 3f74 a03f
00000270: 22e5 fd3f e0b7 c63e d7df 3140 9b19 22be
00000280: a7b6 df3d 687c 29bc 4185 d7be 5241 88bd
00000290: bf85 783e e74e 1ebf 147b c3bf f3c5 053f
000002a0: 65eb 703f 33c9 ca3e 2ff7 0ebf 693c 35be
000002b0: c2e1 8d3d d0b7 92bf 0d1c cdbf ebe2 e9bf
000002c0: 69d6 40bf 193b 903f 9216 11bf 2b3f 6abf
000002d0: caec 88be 01cd c23f 95b7 dc3e 5cdc a73e
000002e0: eb6d 86bf f1a4 2abe 6040 343d 3759 863e
000002f0: 0057 17bf caa5 e73e 32fc 2b3e 455a 7d3e
00000300: 7366 bebe bd96 4c3f a237 8c3e ae48 c1be
00000310: 7f0d 55bf c9ff 9d3f b4e3 96bf d468 dbbe
00000320: a55b 62be 3d7c ee3c dc71 fcbf 32f9 c0bf
00000330: fb05 7fbf c2fb ae3f ae6f 3ebd 405c 8a3f
00000340: 0ed9 a8bf 8a25 64be e24e 0e3f 2938 12be
00000350: f494 973e a6ce d3be 0bd9 c2be db85 0ebf
00000360: c7c1 c23f 4aee dd3d 4925 323f 40d2 a4bc
00000370: b336 2140 5a8a c0be a801 743f f092 47bf
00000380: 185a 71bf 4378 f3bf 574b 393f c076 593f
00000390: d064 2bbe c3b4 95be 33bf ee3d e253 8cbc
000003a0: 696b fa3d f088 50be 72c1 3c3e ff32 073e
000003b0: fa27 30be b7ac cf3e 815c 10bf 25fa 27bf
000003c0: cd88 d73e 862a edbf ff7d 39bf 0f22 b03f
000003d0: 6734 92bf f633 b4bf 2de4 b63e d417 183e
000003e0: 52b7 29bd c123 883f 6388 953d f535 67bf
000003f0: 8732 543f 546e dbbe e067 44bf 4f9b 053f
-1.3868943 -1.0086397 -0.73131174 0.3774989 0.21845493 0.73545283 1.0910594 0.3707173
-0.8170942 -0.3221079 0.18828698 0.3371594 -1.4445368 0.46551973 0.17039932 -0.8594807
-1.2134824 -0.26343775 -0.4781491 -0.11714681 -0.8949165 -0.1835564 -0.22757094 -0.45244125
0.051765602 0.024088332 -0.66722345 0.39676708 -0.9713806 0.18540671 -0.5468091 0.73042333
-0.39218146 -0.6224202 -0.35185078 -0.15130737 -0.18893142 -0.21709195 -0.28068835 0.5175587
0.49126935 -0.06464413 0.5543752 0.707894 -1.5600104 -0.7428011 0.5187143 -1.5867825
-0.2530839 -0.6817138 -1.2301152 -0.19234708 -0.118685946 0.10356742 -0.7022531 0.09971496
0.8394366 0.0781196 -0.55717003 -1.4349301 0.12556295 -0.44905818 0.675027 -0.852501
-0.7133323 -0.88060564 -0.69347894 -0.30247414 -1.9848557 -2.72081 0.011434389 0.17132807
-0.018774364 -0.50747585 -0.017281102 -1.5389255 -0.1887553 1.2941811 -1.1368396 -0.34976375
1.1069889 -0.043511663 -0.98001856 -1.3965205 0.13532181 0.028749282 -0.27142006 0.06328093
0.3314617 0.078694 -0.22386578 0.1140033 -0.94023895 0.14296514 -0.49899963 -0.999763
-0.9605754 1.1382763 0.3756004 0.530352 -0.036655262 -1.8641838 1.0891923 -0.81684995
0.84137064 0.70178574 0.6766625 1.5791923 0.006193033 -1.1234847 -0.33799434 -0.2764928
-0.61153156 1.0760937 1.2477825 1.8771497 0.43479657 -0.45104897 -0.56964016 0.89823765
0.32973865 0.18767056 -0.90581536 1.9865116 0.621628 -0.81406283 2.3202586 -1.0239438
-0.0019581278 -0.7371016 -1.116118 0.08940297 0.65063626 -0.81028444 -0.2044759 0.4884977
-0.081296526 1.0454633 -0.97564405 -0.24072842 1.648105 -0.61240274 0.86048305 1.7256409
1.7454311 0.31144693 -1.8563684 -1.5395827 -0.43074805 -0.13214687 -0.24283622 1.4879731
0.17642698 0.730659 1.4022368 1.2535475 1.9835551 0.3881216 2.779287 -0.1583008
0.1092351 -0.010344602 -0.42093852 -0.06653084 0.2426977 -0.61839145 -1.5271935 0.5225517
0.94109184 0.39606628 -0.5584592 -0.17698826 0.069278255 -1.1462345 -1.6024185 -1.8272375
-0.75327164 1.1268035 -0.56675065 -0.91502637 -0.26743156 1.5218812 0.43108812 0.32785308
-1.0502294 -0.16664483 0.044006705 0.2623994 -0.59117126 0.45243675 0.16795424 0.24741466
-0.37187538 0.7991751 0.27386194 -0.37750763 -0.8322372 1.2343684 -1.178824 -0.42853415
-0.22105272 0.029111976 -1.9722247 -1.5076048 -0.996185 1.367058 -0.046493225 1.0809402
-1.319124 -0.22279945 0.55589116 -0.14279236 0.2960583 -0.41368598 -0.38056216 -0.55673
1.5215386 0.10836466 0.6958814 -0.020119786 2.5189636 -0.37605554 0.9531503 -0.77958584
-0.942781 -1.9021076 0.72380584 0.84946823 -0.16737676 -0.29239473 0.11657562 -0.017129842
0.12227518 -0.20364738 0.18433169 0.13203047 -0.1720275 0.40561458 -0.5639115 -0.65616065
0.42096558 -1.8528602 -0.7245788 1.3760394 -1.1422242 -1.4078357 0.3572096 0.1485284
-0.041434593 1.0635911 0.07301404 -0.90316707 0.828896 -0.4285761 -0.76721 0.5219011

processor.mp_layer.1.source_message_fn f4 [1, 32, 32]
00000000: 00dc 253f 28b2 703f eb8c ad3f ac86 03bf
00000010: 9baf 91be b830 ccbe b095 b5bf 674e 13bf
00000020: 4325 33be 6132 1a3f e3af 79bf 1cbd 7fbf
00000030: e3b7 603f cae3 8abe 59af 65bf fdb1 b2bf
00000040: a90d adbf 1950 153f 815e 253f e189 3b3f
00000050: 6cac f8be feb8 83be 20b5 8e3e affe 1ebe
00000060: 8bb6 533d 4640 d73e d714 66bf 2af0 a6bf
00000070: 0552 c83e b482 e7be 4638 d4be 3469 9f3e
00000080: 9f49 b6c0 6379 163e 0f0a 9dbf 5d85 43bf
00000090: 1300 233e b49a 973e 1037 64be f8b1 25c0
000000a0: be71 cdbf b4f1 f2be 18a0 8fbf 3744 81be
000000b0: 10d3 c53e b511 95be e09d ddbf f612 b1be
000000c0: 89cb 5b3f d712 59bf 6533 3bbf 403c d63c
000000d0: 0c47 343c 372c 04c0 439a 013f dd2d 213f
000000e0: 0efe 2b3e cc09 89bf 84c9 013e 8ca5 d43f
000000f0: 7f13 dabd d4df eabf 7fdd 923e b3fd debf
00000100: 7c5b ca3f 32e9 18bf c46f 80bf 00ab 283e
00000110: 216e dabe da5d e83d 94e9 63be 0527 c6bd
00000120: c387 4ebd d7da 1cbf 94bc 9ebf f780 a6bf
00000130: 2265 46bf 2c82 27bf ab81 9b3f 19e8 e2bf
00000140: 2596 993c f465 e2bf f07e b73f be82 933f
00000150: 245c 58bf fc32 923f f115 9abf 32d1 be3d
00000160: 5a01 33be 715d 223f b8ea 4bbf 9f0c fdbf
00000170: 6fbe febe 6f93 633e ba0a 7ebf 416f 5c3e
00000180: da3f c33e f55e 4d3e e169 7ebe 1c45 83bf
00000190: 4924 203e 41b0 b5bf e531 56bd 7a47 783f
000001a0: 7efe b43f d7cc 2f3f 9755 2a3e b75f 4d3f
000001b0: bd2b 803f c799 913e c1e3 a0bf c659 26bf
000001c0: 66f3 b33f ce1c 2c3f 9885 673e f928 38be
000001d0: 4f48 8fbe 086d 0c3f 897e 013f a23e ef3f
000001e0: d237 143f 760b 0cbf 56d1 0dc0 436e fb3e
000001f0: ffd6 883f 05cc 053f 6dd1 a53f 2524 393e
00000200: 3e3c eabf 037a 1440 8dcc 313f f12d 09bf
00000210: 0e4f 143e 8494 a93f 960d 263e 7ae7 1cbf
00000220: 6a8d 0f3e 2116 0ebe c24c 123f 2eee 5f3f
00000230: 1e70 18bd 2a32 ad3c 5a3f d03e 0cab 0bbf
00000240: ae7a 4c3f f282 adbf 7a1e ba3f 40ad da3e
00000250: 0675 6c3f bd2f 1e3f 870b b7bf e4b9 a93e
00000260: 7db0 83bf 4202 cabe 0a3a 3bbf 37d6 ea3d
00000270: 095a 4d3f e1d5 eebe f961 833f 5841 72bf
00000280: a792 093f 90ec 0540 51d4 c4be 3c80 843e
00000290: efd6 4fbe fe0f fabd 77a3 8e3f c316 54c0
000002a0: 2b6c 2cc0 3dc3 c1be 1ed0 c43e ea49 99be
000002b0: 12e2 993e e7c0 ab3e 6bbe 0140 08ee 513f
000002c0: 70f0 c5bf a8e6 943f 38f4 c83f e928 2dbe
000002d0: 5785 a5bf e196 c3bf 61d9 14bf 33a8 0e40
000002e0: b60a 843e 72b5 0e3f b19b 813e 1c3f b5be
000002f0: 93c5 23bf 75b3 22be ce54 00bd d98f 0fbb
00000300: 5b17 67be df57 d9bf a076 96bf be58 f9be
00000310: b7e6 803f 2486 6b3c 983a c83f 79d2 b7bd
00000320: 963a 5bbf 8c2f c23d eba2 3140 85d4 0b40
00000330: 8530 523f f67b 39bf 802e b23e ba9c c33f
00000340: 78cf bd3f 9f17 80bf 2bc4 aebe ba14 f6be
00000350: 46eb 7f3e 2606 673e 4f0f e73e ac4c 81bf
00000360: 9708 29bd 0e3c 83bf 7004 efbe 1bfb 633f
00000370: f3be 753f d4fc 93bf e13d 08bf ad76 f13e
00000380: 6912 8b3e ad49 f23f 3154 6c3f f4f7 43bf
00000390: 06b8 b33f 4e11 27be 2489 22bf 91a7 893f
000003a0: 611a 463f 5e5e fdbf 7e74 9fbf 74ea 153f
000003b0: 1a35 cc3d a39e 963f c627 0640 d840 88bf
000003c0: b5f0 3f3e 7c4e ba3f ffac 743f 640e 603f
000003d0: 67bc 693f bf0e f13e 329b a5bd 27a5 e43f
000003e0: a7dc bfbe 567b ca3f 251d 28bf 5d6f 943e
000003f0: 6752 a13e 381c 843f 8353 15be a0ab 0ac0
0.6478882 0.94021845 1.355863 -0.5137737 -0.2845429 -0.3988092 -1.4186306 -0.5754151
-0.17494683 0.6023312 -0.97534007 -0.99897933 0.8778059 -0.27126914 -0.89720684 -1.3960568
-1.3519794 0.58325344 0.64597327 0.7325726 -0.48569047 -0.25727075 0.27872562 -0.15526842
0.05168776 0.42041224 -0.8987555 -1.3042042 0.39125076 -0.45216906 -0.41449183 0.3113495
-5.696487 0.14694743 -1.2268695 -0.7637537 0.15917997 0.29610217 -0.2228663 -2.5889874
-1.6050336 -0.4745003 -1.1220732 -0.25247356 0.3863759 -0.29115072 -1.7313805 -0.3458478
0.85857445 -0.8479437 -0.73125297 0.026151776 0.011003267 -2.0651987 0.5062601 0.62960607
0.16796133 -1.0706115 0.12674528 1.6613021 -0.1064825 -1.8349557 0.28684613 -1.7421173
1.5809169 -0.5973083 -1.0034108 0.16471481 -0.42662147 0.11346026 -0.22257072 -0.09675411
-0.05042244 -0.61271423 -1.24013 -1.3008107 -0.77498066 -0.65433 1.2148947 -1.772708
0.018748352 -1.7687364 1.4335613 1.1524274 -0.84515595 1.1421809 -1.2037946 0.093172446
-0.17480984 0.6342383 -0.7965503 -1.9769477 -0.49754664 0.2222421 -0.9923512 0.21526815
0.38134652 0.20055754 -0.24845077 -1.0255466 0.15638842 -1.4194413 -0.052293677 0.96984065
1.4140165 0.68671936 0.16634212 0.80224174 1.0013348 0.28437635 -1.2569505 -0.64980733
1.4058654 0.6723145 0.22609556 -0.1798438 -0.27984855 0.5485387 0.505837 1.8690989
0.57897675 -0.5470499 -2.2159019 0.4910756 1.0690612 0.52264434 1.2954537 0.18080194
-1.8299634 2.319947 0.69452745 -0.53585726 0.14483282 1.3248448 0.1621612 -0.61290705
0.14018789 -0.13875629 0.57148373 0.8747281 -0.0372163 0.021142084 0.40673333 -0.5455787
0.79874694 -1.3555586 1.4540551 0.42710304 0.92366064 0.6179159 -1.4300393 0.33149636
-1.0288235 -0.39454848 -0.73135436 0.114666395 0.8021551 -0.46647552 1.0264274 -0.94630957
0.537394 2.0925636 -0.38443235 0.25879085 -0.20296834 -0.122100815 1.1143636 -3.3138893
-2.694102 -0.37844267 0.3844003 -0.29939204 0.3005529 0.3354561 2.0272472 0.8200383
-1.5464001 1.1632891 1.569953 -0.16910137 -1.2931317 -1.528042 -0.58144194 2.229016
0.25789422 0.55745614 0.25314096 -0.3539971 -0.6397335 -0.1588877 -0.031330876 -0.0021905808
-0.22567503 -1.6979941 -1.1754951 -0.48700517 1.0070409 0.014375243 1.5642881 -0.08975691
-0.8563627 0.09481725 2.7755687 2.1848462 0.82105285 -0.72454774 0.34801102 1.5282204
1.482894 -1.0007209 -0.3413404 -0.48062688 0.24992093 0.22560939 0.45128867 -1.0101523
-0.041267958 -1.0252702 -0.46683073 0.8905503 0.9599449 -1.1561532 -0.5321942 0.47160855
0.27162483 1.8928734 0.92315966 -0.7655022 1.4040534 -0.16315195 -0.6349051 1.0754262
0.77384 -1.9794424 -1.2457426 0.5856087 0.09971066 1.1767162 2.0961776 -1.0644789
0.18744166 1.4555202 0.9557647 0.8752196 0.91303104 0.47081563 -0.08086242 1.78629
-0.37473032 1.5818889 -0.6566947 0.28991213 0.3150818 1.0321112 -0.14582638 -2.1667252

processor.mp_layer.0.update_fn.bias f4 [32]
00000000: 6576 773e 6d72 ab3d bea7 3ebd b3b7 b9bc
00000010: e053 8bbe c5a0 a4be 9279 ffbe a41f 28be
00000020: 47a6 bc3d 3cce d03e 87cd 843e 7e4e bdbe
00000030: ed65 31be deeb 993d f049 8cbe 3590 7cbd
00000040: 0ca4 58bd c33e a9be 9a62 923e 42c0 0e3e
00000050: b7f7 8ebe 1717 9f3e 0ec3 6abd 61a4 dbbe
00000060: e882 5a3c 8108 9fbe 5c9f 9bbe 73ea 9abe
00000070: bd8b aebe 0704 f6bd 432d 153e 6a51 bebe
0.24166258 0.08371434 -0.04654669 -0.022670602 -0.2721243 -0.32153907 -0.49897438 -0.1641832
0.092114024 0.40782344 0.25938055 -0.36973947 -0.17324038 0.07515691 -0.2740016 -0.061660964
-0.052890822 -0.33055696 0.28590852 0.13940528 -0.27923366 0.31072304 -0.057314925 -0.4289885
0.013336875 -0.31061175 -0.3039502 -0.30256996 -0.34090987 -0.12012487 0.14568047 -0.3717149

processor.mp_layer.0.update_fn.weight f4 [32, 32]
00000000: 3609 27bf 8029 85be 3b08 5e3d e44b d53d
00000010: d4e3 3c3e 451c a1be 38af 0d3f 230a d5be
00000020: ec49 0abf 3973 c03d 95c1 00bf 9038 483e
00000030: 1997 43bd 7fba 8dbd 5aab 6bbd 5569 29bf
00000040: 0103 90be 33d4 b43c e387 a43e df35 05be
00000050: e3a9 80be 6878 5dbe 58b4 a8bd a58e 1fbf
00000060: a660 8d3d c928 8fbf bc7b 3fbe 550d 1bbe
00000070: 635e 11be 5c58 16bf 1c71 183e e955 efbd
00000080: 3c57 563e 2665 93be f129 5b3e 2e4d c7bd
00000090: 23a1 41bf fe2a 8d3e 5803 c9bf 796e 3c3e
000000a0: e961 293e 2e32 b2bf 0a73 663e 23a7 513c
000000b0: 658b b9bf 96ad bb3b f855 ec3c 160e 633c
000000c0: 7170 563d e9aa b7bd 95fc 90bc 7727 c13d
000000d0: 1f0a 013e 6a03 5a3e 2a5c d33d ae38 3a3e
000000e0: fd5b 363d d9f1 7bbd 2cf0 08be 28c2 6cbe
000000f0: 4613 3ebb 66b7 81be d24a de3d 67d3 94bd
00000100: e50a 3d3e 80ee 2dbf d7af 3abf 305a 71bc
00000110: 58cd 273e 9b78 c13d 52cb 173e ec0b 05bd
00000120: 04e1 f53d df03 933e 26f5 f83d 7526 b23d
00000130: ec83 b33d c370 063e 75da 413b 2236 f3bd
00000140: 4a5f 02bd 473c 5a3b 0d9a a8be 791f a0bd
00000150: 06e2 8d3d 8ff2 eb3c 21b9 febe e17e 003e
00000160: fefa c0be d8d5 8fbd a218 293d 7986 00bd
00000170: 363a 093e a630 6f3c 8405 d8be 9591 09bd
00000180: e453 67be 9b4a a4be 2b30 fabd e694 073d
00000190: ee18 83be 5c67 92be 2acb a6bd 1197 9ebe
000001a0: d756 3c3e 705f ca3d 034d 11be 78a6 573e
000001b0: 0871 67be 7005 c0be c97a 84be f017 dfbd
000001c0: d687 fcbe 8b10 85bd 25b1 d43e 1578 88be
000001d0: 3b46 36bd 9880 cbbe 97ab 8bbd f211 6c3d
000001e0: fc58 6a3e 2baf 3ebd 1bdb 543e d3cb aebd
000001f0: d01c b9be e670 4cbe 1e3e 1a3d ad2b 58bd
00000200: d73a a9bd 009a 20be c7cd 24be 79cc e93d
00000210: 564a c2bd e89e a9bd 3f29 94bd cf00 50be
00000220: d603 30be d542 64be 8a9f 2cbc 273d cbbd
00000230: fcab 00be dc60 9a3c 8136 a8bc 4fb8 7b3d
00000240: 759b a63c 7331 3abe 3235 a6bd 29c2 15bd
00000250: 1268 59be e4e8 e73b cb06 06be c455 863c
00000260: 19a9 973d 7285 dcbc 635b 32be 60d3 c13d
00000270: 7a7c 26be c928 233d 9671 35bd a54d e13d
00000280: 04bc 8cbd 3458 22bd 3acb ebbc 3c26 70bd
00000290: b181 b7bc 4d9f cabc 2fc5 c6bc a165 e03d
000002a0: 2aac 33be a7b0 bfbd b832 03be 20d4 f2bd
000002b0: 42f8 33be 1d3d b33d e2af cd3c 496f 88bd
000002c0: c4b1 273d 128e 98be 2e36 b53c d760 1abe
000002d0: a248 ffbd 6c07 3cbc 05c4 573a 7170 6a3c
000002e0: 4547 903d a9a9 84bd 1e17 8cbe 774e 32bd
000002f0: 2d85 84be 6692 b0bd d80a dbbd 4a10 bf3b
00000300: ff4e 5dbf b72c 2b3f b9e3 ba3e bc51 113f
00000310: f35d 123f d2d5 90be 7213 e0be fa6e 67bf
00000320: 3717 c3be 932c aabe 858f cfbe f0ec 54be
00000330: 2eb4 d53e 4b66 b8be 9118 e03d a715 cdbe
00000340: b760 1cbc c8c1 fc3d 3116 253d e1e6 073d
00000350: e03f 983d a516 00bf b974 723e 12a2 e73e
00000360: 4ba5 43be bc1b 373f 2e41 213f 7af6 b6bd
00000370: 5c6c f1be 3db8 e23e d22e 903e 55b9 c13b
00000380: a4b1 40be 913c 56be 3068 c3bc 097b 95bc
00000390: 2d45 94bb 2c6b 47be cb83 1cbd 3c2d 1ebe
000003a0: 7b5b 39bd ddd7 053c 47ce 42be 56c3 2ebe
000003b0: 81c1 e3bd c8fd 0bbe c100 1fbe 8b4a 90be
000003c0: 84fb e0bd 3312 47be 611c 02bd c00f b7bd
000003d0: e640 563b bd1a 35bc f080 41be f416 1cbe
000003e0: f479 3bbd ed19 d1bd 433d 0cbd e6a9 0fbe
000003f0: 7eeb 0bbe cc3c 863d 2747 2a3d 1dd7 3fbc
-0.6524843 -0.26008224 0.054207068 0.104148656 0.18446285 -0.3146688 0.5534549 -0.41609296
-0.54019046 0.09396977 -0.5029538 0.19552827 -0.04775152 -0.06920337 -0.05753646 -0.6617635
-0.28127292 0.02207384 0.32134923 -0.13008831 -0.25129613 -0.21627963 -0.08237523 -0.62327033
0.069032 -1.1184322 -0.18699545 -0.15141805 -0.14196162 -0.58728576 0.14886898 -0.11686308
0.20931715 -0.28788108 0.21402718 -0.09731518 -0.756365 0.27571863 -1.5704145 0.18401517
0.16541256 -1.3921564 0.22504821 0.012796196 -1.4495665 0.00572748 0.028849587 0.013858339
0.052353326 -0.089681454 -0.017698565 0.094313554 0.12601517 0.21290365 0.10320313 0.18185684
0.04452132 -0.06150994 -0.13372868 -0.2312094 -0.0029003187 -0.25335234 0.108541146 -0.07266884
0.18461187 -0.6794205 -0.7292456 -0.014730975 0.16386926 0.09446832 0.14823654 -0.032482073
0.12005809 0.2871389 0.12156133 0.08698741 0.087653965 0.13128953 0.0029579673 -0.118755594
-0.031829156 0.0033300088 -0.3293003 -0.07818503 0.06927876 0.028802184 -0.49750617 0.125484
-0.37691492 -0.07023209 0.041283257 -0.031378243 0.13401112 0.014599001 -0.42191708 -0.033586103
-0.22590595 -0.3208817 -0.122162186 0.033100985 -0.25604957 -0.28594482 -0.08144219 -0.3097463
0.18392502 0.098814845 -0.14189534 0.21059597 -0.22601712 -0.37504148 -0.25874928 -0.108932376
-0.49322385 -0.06497296 0.415414 -0.26654115 -0.04450057 -0.39746547 -0.068198375 0.0576343
0.22885507 -0.046553772 0.20786707 -0.0853497 -0.36154795 -0.19964942 0.037656896 -0.052776027
-0.08263176 -0.15683746 -0.16094123 0.11415953 -0.09486835 -0.08282262 -0.072344296 -0.20312808
-0.17188963 -0.2229112 -0.010536084 -0.09923773 -0.12565607 0.018845014 -0.020533802 0.061455067
0.0203378 -0.18182926 -0.08115615 -0.03656212 -0.21231106 0.0070773233 -0.13088529 0.016398318
0.074053 -0.0269191 -0.17417674 0.09464145 -0.16258422 0.039833818 -0.044297777 0.11001138
-0.06871799 -0.0396349 -0.02878343 -0.058630213 -0.022400709 -0.024734164 -0.024263946 0.10956884
-0.17546144 -0.09359866 -0.12812316 -0.11856866 -0.17575172 0.08751891 0.025108282 -0.06661851
0.040941015 -0.2979589 0.022120561 -0.15076004 -0.124650255 -0.011476379 0.00082308083 0.014309035
0.070448436 -0.064776726 -0.27361387 -0.04353186 -0.25882855 -0.08621673 -0.10695428 0.005830799
-0.86448663 0.66865104 0.36501864 0.5676534 0.57174605 -0.28288132 -0.43764836 -0.9040371
-0.3810365 -0.33237132 -0.40539184 -0.2079351 0.4173903 -0.36015543 0.10942186 -0.40055582
-0.009544543 0.12341648 0.040304366 0.033179168 0.07434058 -0.5003455 0.23677339 0.45240837
-0.19106023 0.71526694 0.6299008 -0.089337304 -0.47152984 0.44281188 0.2816072 0.005911986
-0.18817765 -0.20921542 -0.023853391 -0.018247144 -0.004524848 -0.19474477 -0.038211625 -0.15446943
-0.04525326 0.008169142 -0.19024001 -0.17066702 -0.11120892 -0.13671029 -0.15527631 -0.28181872
-0.10985473 -0.19440536 -0.031765345 -0.08938551 0.003269249 -0.011053738 -0.18896842 -0.15243131
-0.0457706 -0.10210023 -0.03423811 -0.14029655 -0.13664052 0.06554565 0.041571762 -0.011709002

processor.mp_layer.0.target_message_fn f4 [1, 32, 32]
00000000: 35bf 303f 0148 92be a100 053e 6bd7 e0bf
00000010: 74e6 483e 3b99 f53f abbc 2dbe 4077 553f
00000020: 4509 093e f448 a7bf 671e 2c3f a2af a5be
00000030: ce39 ee3f fb5c ebbf ea9c 28bf 3fc7 603f
00000040: 28f1 33bf abf9 c83e 5b49 9a3e 17a9 44bf
00000050: 6af5 6f3f 9d34 d0bf 419c 2b3f c8cf 863f
00000060: f988 a63e aa42 f4be 0c38 933e 81b5 d1bf
00000070: 9912 87be 7441 ee3f 525b b2bf 2f6e 14bf
00000080: ee42 503e 7d65 adbf 3b09 073f 4631 cd3e
00000090: 540d 013f 3e13 d53f 587e 3e3f f86c 383f
000000a0: 471c 4c3d c6cb 003f 57ea fbbf f736 4c3f
000000b0: b731 bb3f 7cf7 98bf dae3 1f3f c9e3 a33f
000000c0: 8221 9c3e ec18 433f 3ee9 dc3f 04ef 8abf
000000d0: 4b78 0dbf 1189 803b 5022 223e 839d 133e
000000e0: a9df 1a40 d9ec 813e 649f 3040 3699 b03f
000000f0: a43c 713e a426 f23f d7d1 433b dbe8 a4bf
00000100: de81 2cbf 888f b6bf fcce d33f a9dc adbf
00000110: a02d 0abf 2273 b13f 6c3d e93f f5b6 903f
00000120: c3d5 46bf 2610 2cbe dc57 82bf 12cf 63bf
00000130: c76c 50bf f6c4 dbbe b5c2 873f 2a48 763f
00000140: 2291 703f a4a8 a73e 5832 b1bf 31ca 1c3f
00000150: b317 0f3f db5b 503f bd4f 8e3e b775 b2be
00000160: 7069 d63f e28c 703d 4195 6fbf 3aea d83e
00000170: 778d bdbe bfb8 c33f a4e0 e03e 36d7 733e
00000180: 8444 d63f 7c98 b9bf 2f57 aebf 5a81 8f3f
00000190: 2936 973f 5143 8f3e 8ebb dabe 8d98 d53d
000001a0: e79d d83f 5990 933e 8f91 283f 1912 9f3f
000001b0: cc76 693f c4e6 4bbe cb2a 113f 892a 203f
000001c0: c806 493f 2cc1 cdbe 41af 9fbf 6203 053d
000001d0: d9bd 2cbe d782 a93f 3313 e13f 8339 c2bf
000001e0: cba1 75be fddc fdbe d166 a7bf 8ce5 0d3f
000001f0: 2799 e3bf b146 11c0 8d4a 153f 0279 613e
00000200: 7e08 763f 4c2c 09bf b33c 7bbf 9c83 6cbf
00000210: aa14 6a3f 11e7 6dbd 4194 00bf abab 333f
00000220: f6d0 f3be c73d 5a3f 9d42 473e df92 543e
00000230: 6baa 213e 8813 ef3f cfc1 243f 7838 9a3f
00000240: 4672 b83f 47ea 33be f497 5e3c 31d7 1a40
00000250: 9736 213e 0607 55bf e1bf 43bf bb13 73be
00000260: 004a de3e 7836 e4be 4ae6 89bf 3472 6abf
00000270: 46a8 433f ac32 a43e a06e 903f 269c b9be
00000280: dc61 80bf a41c cb3e 6c04 c03f 9620 05be
00000290: 8785 093f e67f 0e3f 6228 9abf fea5 cf3e
000002a0: 7931 57bf 170f 38bf 74ec 32bf ef97 dbbe
000002b0: 7569 cfbf fa2c 05bf bea5 ebbd 3f8f 0a3f
000002c0: 76bb 123c dc3c 8a3f db0a ae3e ca7c a53e
000002d0: 5308 3cbf d2ec 0f3f 45e1 3f3f c3d6 853d
000002e0: e308 de3f 3493 d7be b55e 8e3d e766 02c0
000002f0: 98d4 9f3e b7ac 163f 9985 093f f590 ad3f
00000300: 748e 573f af73 f13e 517d 9c3f a8e2 1e3f
00000310: 2307 de3f 4705 f43f 1b1b 193e 052c d03e
00000320: 6b92 7c3f 34f4 ea3e 9cf6 373f 39a5 4dbf
00000330: 8053 6fbf 498a 88bf 4811 ccbe 6257 c23f
00000340: 0574 933f dab4 a63f 01dd 6abf 68e0 60be
00000350: e138 3fbf 43e9 b83f 40f0 1940 cb58 b1be
00000360: 7061 883f f945 90bf 34de 8c3e 57cc 973f
00000370: 5341 693f 8d9b dfbf ca7f 95bf 5ef8 9fbe
00000380: caab 573f bed0 26be 74d8 f5be 90c5 713e
00000390: c12e 21bc b439 ab3e 1b4f e3bf 32ba 903f
000003a0: af1b a0bb 4892 d3bf e2b0 6dbf dedc a7be
000003b0: 9302 a6bf b7d1 45bf d029 54bf 55f7 8f3f
000003c0: dae8 de3f abc8 213f 5b80 21bf a1be 383f
000003d0: 23d5 2cbf a87e 22bf a100 9b3c 2ada 68bf
000003e0: 7081 0fc0 3c47 893f aecb 9dbf 46ea 093f
000003f0: e1a2 343d 2c31 df3e d070 1540 6697 ab3f
0.6904176 -0.2857056 0.12988521 -1.756574 0.19619161 1.9187387 -0.16966502 0.83385086
0.13382442 -1.3069139 0.6723389 -0.3236056 1.861139 -1.838775 -0.6586443 0.87804025
-0.7028985 0.39252982 0.3013409 -0.7682051 0.9373385 -1.6266056 0.670353 1.053216
0.32526377 -0.4770711 0.28753698 -1.6383516 -0.26381376 1.8613725 -1.3934119 -0.57980627
0.20338032 -1.3546597 0.5274846 0.40076655 0.5041096 1.6646497 0.74411535 0.72041273
0.049831655 0.50310934 -1.968089 0.7977137 1.4624547 -1.1950526 0.6245705 1.280389
0.30494314 0.762099 1.725868 -1.0854192 -0.5526168 0.0039225896 0.15833402 0.14415555
2.4199011 0.25376013 2.7597284 1.3796756 0.23558289 1.8918042 0.0029879713 -1.2883562
-0.6738566 -1.4262552 1.6547542 -1.3582965 -0.5397587 1.3863261 1.822187 1.1305834
-0.77669924 -0.16803035 -1.0183063 -0.8898784 -0.8141598 -0.42923707 1.0606295 0.96203864
0.93971455 0.3274585 -1.3843489 0.6124602 0.5589554 0.8139016 0.2779521 -0.34855434
1.6750927 0.058728106 -0.9358712 0.423662 -0.37021992 1.5290755 0.43921387 0.23812565
1.6739659 -1.449966 -1.3620356 1.121135 1.1813403 0.27981046 -0.42721218 0.104294874
1.6923188 0.28821066 0.65847105 1.2427398 0.91196895 -0.19912249 0.5670592 0.62564903
0.7852597 -0.4018644 -1.2475358 0.03247393 -0.16869296 1.3243054 1.7583984 -1.5173801
-0.239875 -0.49582663 -1.3078252 0.55428386 -1.7781113 -2.2699397 0.5831688 0.22018817
0.9610671 -0.53583217 -0.98139495 -0.9238832 0.9143778 -0.05808169 -0.5022622 0.7018382
-0.47620362 0.85250515 0.19459005 0.20759152 0.15787666 1.8677835 0.6435823 1.2048483
1.4409873 -0.17569838 0.013586033 2.4193842 0.1574348 -0.8321384 -0.7646466 -0.23737995
0.43415833 -0.44572806 -1.0773404 -0.9158051 0.7642864 0.3206991 1.128376 -0.36251944
-1.0029864 0.3967029 1.500135 -0.13000712 0.5371937 0.5566391 -1.2043574 0.4055633
-0.84059864 -0.71898025 -0.6989205 -0.42889354 -1.6204058 -0.52021754 -0.11506222 0.54124826
0.008955827 1.0799823 0.33992657 0.3232177 -0.734502 0.56220734 0.7495311 0.06535103
1.7346462 -0.42104495 0.06951658 -2.0375307 0.31216884 0.5885729 0.5371948 1.3559862
0.8420174 0.47158572 1.2225744 0.620646 1.7345928 1.906411 0.14951746 0.40658584
0.98660916 0.45889437 0.7186067 -0.80330235 -0.93486786 -1.0667201 -0.39856935 1.5182917
1.1519781 1.3023942 -0.91743475 -0.21960604 -0.74696165 1.4446186 2.4052887 -0.34638056
1.0654736 -1.1271354 0.27513278 1.1859235 0.911153 -1.7469345 -1.1679623 -0.31244177
0.84246504 -0.16290566 -0.48016703 0.2361052 -0.009837807 0.33442461 -1.7758516 1.1306822
-0.0048861126 -1.6529016 -0.92848027 -0.32785696 -1.2969536 -0.77273124 -0.828763 1.1247355
1.7414811 0.6319682 -0.6308648 0.72165877 -0.6751272 -0.6347451 0.018921198 -0.9095789
-2.2422752 1.0724864 -1.2327783 0.538731 0.044100646 0.43592203 2.3350105 1.3405578

processor.mp_layer.0.source_message_fn f4 [1, 32, 32]
00000000: e5d6 a23d 5ff8 1fbf c42c 16be c2e9 01bf
00000010: f1fd b53e 3e6a f7bf 590d 76bf 2cfe 07bf
00000020: 3e0b 0cbf bef1 80bf 51a7 82bf 97e1 5c3f
00000030: 4639 8ec0 ce23 d7bf ab98 973f f94b f2be
00000040: 29ff ffbd b72f 013f a952 36be 3fa0 88bf
00000050: 666a 1cc0 6355 89bf e607 31be 3bfd f6be
00000060: c386 adbf a439 f53e c1ce c03e 2089 d33e
00000070: b5c0 343f 32b3 5bc0 c686 383f 5fe0 c03d
00000080: f65b c7bd 31f7 753f 94d2 7b3f 8fa5 2940
00000090: bcc5 e43e 7a99 5e3f d65c 513f b865 32bf
000000a0: 8855 d9be 0924 953f 51fa 2dbe 73af a23c
000000b0: 80d7 afbe 045a 113e ee4e bcbf 8a57 0d3f
000000c0: 2a9a db3f 8596 7a3f 44e7 b73e 9b65 babf
000000d0: c6b2 863f 9f36 b33e 294b 9ebf 29cb 7e3f
000000e0: 8e51 c5be 8e39 8b3e 38a3 12be d5d1 5b3f
000000f0: 318f 5dbe 68c5 b23f c465 c2bf a905 3840
00000100: 6409 d1bf 56b8 1e3e 2b3c bdbd e17a c7bd
00000110: f571 0340 fc58 033f 4c0b 043f cc04 3dbf
00000120: 8124 6fbf 7db6 aebe dfa6 87be 6d18 32be
00000130: dcf3 a43f 6819 a9be a842 683f 4aee d2be
00000140: 144e 963f de49 19be b00b c33e 23da abbf
00000150: 9536 e13d a9a2 0840 d843 f43e 3163 23be
00000160: c3ff 02bd 4a64 0a3f 3fc0 923f b704 43be
00000170: b8ec 06bf 7cd2 91bf f213 5ebe 8463 9c3e
00000180: 64fb 8cbf 9fec 033f a448 18bf 1f47 563f
00000190: 3ff7 9f3f 1b4c 49be 4a79 153f b0d5 4a3f
000001a0: 9a7f cabe 8693 033f 5bf1 8dbf 982f 11bf
000001b0: 4b69 cdbe 1d84 31bf 2b8c 593f aa0b e5bf
000001c0: 5edc 2b3f 0d4f 473f f943 0c40 9ed7 9cbf
000001d0: 63d9 f93e 2cbb dfbe 9407 29be 9cf7 2d3f
000001e0: 0e06 16be 8734 ee3f a9f3 c13f a29f 84bd
000001f0: 23a3 f4be e647 a03f 96b8 193f 7834 07be
00000200: 5edd 1fbd b5a7 393f dbf2 f03f 8877 ccbf
00000210: 6487 0640 34e5 b6bf f6b6 863f 0a77 7ebf
00000220: c597 bebf 42f1 abbe faa6 103f 2079 1a3f
00000230: a1e7 903e 19a9 513d 734f f33e 5448 f13f
00000240: dfcd 1bbf 5cfe 2040 6e75 b2bf 80b9 28bf
00000250: 2c47 2abf fe2a 093f ccb1 83bf ad5e 973f
00000260: 7171 06be 5053 dfbe d489 0cbf 3fc7 c83f
00000270: ccc9 82be 97c7 a23e a6a6 55be 66ea f4be
00000280: 64dc 0bbe 0002 093e 5e06 e5be fc5b 833f
00000290: 6dd9 6fc0 4f6b a3bf 2ebe f83e 9d5f 8d3f
000002a0: db99 20bf 0344 cbbb fc5a b7be 2d3b 9e3f
000002b0: 1736 1f3e 6c2f bebe f2c4 233f dce7 11bf
000002c0: ad9a 183f cec3 143f 31c3 4bbf 8ba5 2b3f
000002d0: da84 ba3a 9370 cfbf c775 81bf 8db8 94be
000002e0: 12ec d7bf 338f 1cbe d244 863c 64f5 15bf
000002f0: 0351 853f 40b8 693f c803 7abd d17c 923f
00000300: bf5b 73be 9806 393f e395 dabe d5fa 1f3f
00000310: e700 1f3f 19d2 6a3f 9388 423f 1507 033f
00000320: ce2e c33f f969 aabf 938d 9cbf 8ebd 993f
00000330: 2855 dd3f 4e22 363f 73b4 9a3f 34c3 7abf
00000340: 9722 263f 4595 d93e ad5a 23bf 83f4 83bd
00000350: 55ff ef3e e232 033e bc80 a8bf 71cc 6bbf
00000360: 86ba 9a3f 85ce a1be a928 68bf e529 793f
00000370: b678 673d b9d7 a53f 64c0 293e 06eb f8be
00000380: 9d41 56bf b02d b4be c39c a3bf dc46 5a3e
00000390: cb8d 593f 1538 ebbf 1d1c 3a3f ef2d 483f
000003a0: bf5c 103f 0d46 313f 2fda 713d b7d0 6a3f
000003b0: a77c 043f 4d9f 68be 56dd d83f 8351 ba3f
000003c0: 9fea 153f 7bdf 8b3f b4d3 363f 498c b8bf
000003d0: 3fc9 313f 80d5 2b3f 833a 933f c387 163f
000003e0: 5e3b 57bf 6ab8 4bbf 1f61 c7be 12e4 94bf
000003f0: d5c1 a2bf 3b94 03bf f61a e7bd 8867 a23e
0.07951144 -0.6248836 -0.14665514 -0.5074731 0.35545304 -1.9329298 -0.96114117 -0.5312221
-0.54704654 -1.0073774 -1.0207311 0.8628172 -4.4444914 -1.6807802 1.1843466 -0.47323588
-0.1249984 0.5046343 -0.1780497 -1.0673903 -2.443994 -1.0729183 -0.1728817 -0.48240075
-1.3556751 0.4789554 0.3765774 0.41315556 0.7060655 -3.4328122 0.7208065 0.094177954
-0.09734337 0.9608031 0.9836819 2.65073 0.4468211 0.86952937 0.8178228 -0.6968646
-0.42448068 1.1651622 -0.1699002 0.019859051 -0.343441 0.14194494 -1.4711587 0.552117
1.7156422 0.97885925 0.3591863 -1.4562258 1.0523307 0.3500261 -1.2366687 0.9952875
-0.38538784 0.27192348 -0.14320076 0.85867053 -0.21636654 1.3966494 -1.5187306 2.8753455
-1.6330991 0.15500006 -0.09239992 -0.09740234 2.0538304 0.51307654 0.5157974 -0.73835444
-0.93415076 -0.34123603 -0.264945 -0.1739213 1.288692 -0.33027196 0.9072671 -0.41197425
1.1742578 -0.14969584 0.38094854 -1.3425945 0.10996739 2.134928 0.4770801 -0.15955807
-0.031982195 0.5405928 1.1464919 -0.19044767 -0.52704954 -1.139236 -0.21687296 0.30544674
-1.1014218 0.5153293 -0.5948584 0.8370227 1.2497329 -0.19657938 0.583882 0.7923231
-0.39550477 0.5139698 -1.1089281 -0.5671325 -0.40119395 -0.69342214 0.84979504 -1.7894185
0.6713313 0.77854997 2.1916487 -1.2253301 0.48798665 -0.43697488 -0.16506797 0.67955947
-0.14650747 1.860978 1.5152484 -0.0647576 -0.47780713 1.2521942 0.6004728 -0.13203609
-0.03902947 0.72521526 1.8824114 -1.5973978 2.1020136 -1.4288697 1.0524585 -0.9940039
-1.4890066 -0.33582503 0.56504786 0.6034107 0.2830172 0.051186655 0.47521552 1.8850198
-0.6086101 2.5155249 -1.3942087 -0.6590805 -0.6651485 0.53581226 -1.0288634 1.1825768
-0.13129212 -0.4361825 -0.5489781 1.5685805 -0.25544584 0.317929 -0.20864353 -0.47835082
-0.13658291 0.13379669 -0.4473142 1.0262446 -3.7476456 -1.2767123 0.48582596 1.1044804
-0.62734765 -0.006203176 -0.35811603 1.2361809 0.15547977 -0.37145555 0.6397239 -0.56994414
0.59611017 0.58111274 -0.79594713 0.67049474 0.0014230267 -1.620623 -1.0114068 -0.2904705
-1.6868918 -0.15289001 0.016390238 -0.5857756 1.0415348 0.9129677 -0.061038762 1.1444341
-0.23765467 0.72275686 -0.4269248 0.62492114 0.6211075 0.91726834 0.75989646 0.5118268
1.5248659 -1.331359 -1.2230705 1.2010972 1.7291613 0.71146095 1.2086319 -0.97954106
0.6489653 0.42496696 -0.63810235 -0.06443121 0.4687449 0.12812379 -1.3164287 -0.9210883
1.2088172 -0.31602874 -0.9068704 0.9732955 0.056511603 1.2956458 0.16577297 -0.4861681
-0.8369387 -0.35191107 -1.2782215 0.21316093 0.84981984 -1.837649 0.7269915 0.7819509
0.5639152 0.69247514 0.059045967 0.91724724 0.51752704 -0.22717018 1.6942546 1.4556125
0.5856113 1.0927576 0.71416783 -1.4417812 0.694477 0.6712265 1.1502231 0.58800906
-0.8407496 -0.7957827 -0.38941285 -1.1632102 -1.2715403 -0.51398057 -0.11284439 0.31719613

parallel_termination_global.weight f4 [2, 32]
00000000: 86a6 b3bd 6c7b 37be 8dad 653e 30f0 dc3e
00000010: d037 45bc 8bd2 c7bf d89d 01bf 3158 c2bd
00000020: 85a6 a9be 922c 0ebe 7b75 53bf 473f c73e
00000030: 6de4 873f b949 cdbc 918f f6be b614 7bbf
00000040: 1436 91be 013c babe d6b4 8d3e 85b6 af3e
00000050: 42c8 1b3f c5b7 53bf 7b81 363e ed06 45bf
00000060: 5c47 36be a03a a1be 556b 89be eb48 dfbe
00000070: b0bc debe b307 163e 3de4 ffbd ebce 3dbd
00000080: a614 af3e 0099 b73e 45aa 85be 57cd 0fbf
00000090: b638 67bd 63af c03f 5341 343f 4bb6 cb3d
000000a0: 21e2 713e 6917 f03c 2769 233f a227 91be
000000b0: 4de6 a6bf 7f55 cbbd 01f5 d23e c3c1 883f
000000c0: 8e17 233e 027f f93d 3b62 4ebe a569 7fbe
000000d0: 0e37 ddbe d58c 623f ad09 e1bd 9c94 363f
000000e0: 133d a13c 401f 8b3e 2363 143f 07e2 233f
000000f0: d3e0 0c3f b0cd 62be 37e3 5b3e 98f0 b73d
-0.08771996 -0.17918175 0.22429486 0.43152 -0.0120372325 -1.5611128 -0.50631475 -0.094894774
-0.33134857 -0.1388419 -0.82601136 0.38915464 1.0616585 -0.025059568 -0.48156407 -0.9807848
-0.2836157 -0.36373904 0.2767703 0.3431894 0.60852444 -0.82702285 0.1782283 -0.7696369
-0.17800659 -0.3149004 -0.268397 -0.4361032 -0.43503332 0.14651375 -0.12494705 -0.04633991
0.3419544 0.35858917 -0.26106468 -0.561727 -0.05645057 1.5053524 0.70412177 0.09946879
0.23621418 0.029308038 0.63832325 -0.2835055 -1.3039032 -0.099284165 0.41202548 1.0684131
0.15926954 0.12182428 -0.2015466 -0.24942644 -0.43206066 0.8849614 -0.10988174 0.7132051
0.019682443 0.2717228 0.5796377 0.64016765 0.55030555 -0.22148776 0.21473394 0.089814365

parallel_decoder.bfs_state_outputs.bias f4 [2]
00000000: 2a14 3a40 db12 3ac0
2.9074807 -2.9074008

parallel_decoder.bfs_state_outputs.weight f4 [2, 32]
00000000: 040a 8340 a697 1cc0 924d dd3f 0eb7 32c0
00000010: 2fdd 8f3e 5f01 b540 8bd9 f83f 1914 913f
00000020: a58c 6a40 4396 41c0 edf6 023f 1598 57bf
00000030: 72bf 91c0 4065 0bc0 3358 ba3f 74b3 9040
00000040: ead7 913f a3a7 be3c 7d08 be3e 1faa efbe
00000050: da71 17c0 e6b4 1140 0dbc 9440 58ee 353f
00000060: 352e 3fbf 8458 56bf d93d 23bf 1641 27c0
00000070: 5dc7 5440 de83 3d3e 886a 75bf 4ae6 ea3f
00000080: 838f 83c0 4508 1d40 2c1d dfbf 0694 3140
00000090: bb93 95be 6e0f b8c0 50dc f5bf 1233 8cbf
000000a0: bb32 70c0 8fc1 4040 f253 febe af07 593f
000000b0: 6d05 9040 9df4 0a40 f3df bfbf b415 8fc0
000000c0: a9ea 94bf 7a4e 17bd 1f15 c8be 1fe8 fb3e
000000d0: 6b24 1940 0b24 11c0 1e4b 94c0 9da0 39bf
000000e0: c3b0 3d3f b3bf 663f 1130 273f 25b5 2640
000000f0: 3d96 54c0 709e 5fbe 9ad9 7e3f 4512 ebbf
4.0949726 -2.446756 1.7289298 -2.7924228 0.28098437 5.6564174 1.9441389 1.1334258
3.6648343 -3.0247962 0.5115803 -0.84216434 -4.55462 -2.1780548 1.4558166 4.521906
1.1394017 0.023273295 0.3711585 -0.4680948 -2.366324 2.2766662 4.6479554 0.7106681
-0.7467988 -0.83728814 -0.6376625 -2.6133475 3.3246682 0.18507335 -0.9586568 1.8351529
-4.1112685 2.4536297 -1.7430778 2.7746596 -0.29214272 -5.7518835 -1.9207859 -1.0953085
-3.7530963 3.0118139 -0.4967342 0.8477735 4.5006623 2.17118 -1.4990219 -4.4713993
-1.1634113 -0.036940075 -0.39078614 0.49200532 2.3928478 -2.267825 -4.6341696 -0.725107
0.7409784 0.9013626 0.6530772 2.6048062 -3.3216698 -0.21837783 0.99550784 -1.836495

parallel_termination_node.weight f4 [2, 32]
00000000: 3979 55be f9e5 b9be 45bd 3a3e ea41 223f
00000010: 4d9a d1bc 3908 c4bf a2b4 21bf afbb 5ebe
00000020: d462 74be a23e 14be be3b 11bf bd8b b73e
00000030: 741e 903f 56d1 e43d 0095 c3be 3116 55bf
00000040: 9897 aabe 0553 98be 57eb 313e 9199 523e
00000050: c041 103f e31b 0ebf 49f5 563e cfab 2fbf
00000060: 485c 7fbd 48ea 64be 8a91 f8be 9f5a 17bf
00000070: 72e9 c8be ef98 7b3e a3f7 2cbe c1c8 bcbe
00000080: 4ece 163e 8597 653e 6e47 dcbd 49a1 dfbe
00000090: 1cf2 1e3e 3dd9 c03f 25bd ef3e 9433 193d
000000a0: 5360 bb3e 1251 513e c4d1 313f 9c8a dcbe
000000b0: 9225 a6bf a6f4 8a3c 9b80 f53e b35c 923f
000000c0: 7beb eb3d 42af 313d 0338 25be b7f9 d4be
000000d0: bc2d 20bf 2d82 5f3f 009a 3ebe 4882 4b3f
000000e0: c95e 193e fac4 c13e 3ad4 fa3e 602a 283f
000000f0: ae20 013f fa7c 71be dbea ad3c 44c3 be3e
-0.20847024 -0.36308268 0.18236263 0.63381827 -0.025586272 -1.5315009 -0.6316625 -0.21751283
-0.23865825 -0.14477018 -0.56731784 0.358488 1.1259294 0.1117274 -0.38199615 -0.83236986
-0.33318782 -0.2975084 0.17374931 0.20566393 0.56350327 -0.555113 0.20992006 -0.68621534
-0.062343866 -0.22354996 -0.48548537 -0.5912265 -0.39240605 0.24570058 -0.16891341 -0.36871913
0.14727136 0.22421081 -0.10755812 -0.43677738 0.15522045 1.5066296 0.46823993 0.037402704
0.36596927 0.20441082 0.694607 -0.430745 -1.2980216 0.01696236 0.4794968 1.143454
0.11519524 0.04338003 -0.16134648 -0.41596767 -0.62569785 0.8730801 -0.18613434 0.7949567
0.14977564 0.37845594 0.4899004 0.6568966 0.5044049 -0.23582831 0.021230152 0.3725835

parallel_decoder.bfs_distance_outputs.weight (column-major) f4 [1, 32]
00000000: 7277 5b3d 6a4b da3d 08e4 223e a8cc 063e
00000010: fd9a 31be 8eae a7bd dacd 5ebe 8ae7 353c
00000020: dad4 203d 5fad c73d db3e 653d 56a9 d9bc
00000030: d536 e43d e35b 873d c4e8 263e 4bfe 7ebd
00000040: aa0f 0bbd 24c6 e1bd b9dd f83d 01e6 053e
00000050: 1172 563e 01fe f73d a85d a43d 056b d7bc
00000060: fc61 5d3e 5426 1b3e 0247 e03d 9510 a23d
00000070: 41d8 143d 551e f7bd 5a9c 513e d3ba 283e
0.05358071 0.10658915 0.159073 0.13164008 -0.1734428 -0.081875905 -0.21758214 0.0111025665
0.03926549 0.09749865 0.055968147 -0.026570003 0.11143271 0.06609323 0.1629973 -0.06225423
-0.033950485 -0.110241205 0.12151665 0.13076021 0.2094195 0.12108994 0.08025676 -0.026296148
0.2161941 0.1515134 0.10951044 0.07913319 0.03633905 -0.12066332 0.204698 0.16477518

parallel_decoder.predesecor_prob.weight (column-major) f4 [1, 64]
00000000: 9af5 cb3d fb55 2dbf 5332 5bbe dc80 88be
00000010: 7d62 a03d 271f bf3e 6268 a5bd 62cf 773f
00000020: 8fff 9c3e 7b6f 08bf ac6b b13e e973 6fbf
00000030: ee62 0ebf 7b9e bfbe 1e8b 39be 0b8a 0d3f
00000040: 2b9a 5b3f 288b ef3e 5713 cabe 059e b0be
00000050: 7813 fc3c 887d f2b8 5ec2 76bd a164 203f
00000060: e9f5 6bbf 15e3 88be 1801 74bf 6264 d0bf
00000070: 6469 313f 1ff2 803f 0ddb a6bd 9516 18be
00000080: 16f2 d9be a749 b83f c30c d8be 22c6 d43d
00000090: 9d78 9d3e fa48 58bf 2d24 be3d d622 ccbf
000000a0: 18aa e7be b461 853f 9ed7 58bf a30a 923e
000000b0: a89c 593f d7c7 133f 1d1e f53d 846e 89bf
000000c0: 39c2 7fbf e77e 15bf 8af9 e83e d126 163f
000000d0: bdc3 c4be b04c 92bd 5505 0ebe e1c9 b4be
000000e0: 1db4 c13f 7876 153f 2b66 c03f cc23 0d40
000000f0: 5795 3dbf 951b a5bf 2e80 603e a545 903d
0.09958954 -0.6770932 -0.21405916 -0.26660812 0.07831285 0.37328455 -0.0807655 0.96800816
0.30663726 -0.53295106 0.3465246 -0.9353624 -0.55619705 -0.37425599 -0.18119475 0.5528876
0.85782117 0.46785855 -0.3946788 -0.3449556 0.030771002 -0.00011562841 -0.060243957 0.6265355
-0.92172104 -0.2673575 -0.9531417 -1.6280634 0.6930144 1.007389 -0.08147249 -0.14852364
-0.4256751 1.4397477 -0.42197236 0.10389353 0.30756083 -0.84486353 0.09284244 -1.5948131
-0.4524696 1.0420442 -0.84704006 0.2852374 0.85004663 0.57726806 0.11968634 -1.0736852
-0.99905735 -0.5839676 0.45502883 0.5865298 -0.38430586 -0.07143533 -0.13869222 -0.3531027
1.5133091 0.58383894 1.5031179 2.2053099 -0.74056 -1.2899042 0.21923897 0.07044534

parallel_termination_bias f4 [2]
00000000: 51ef f0bd b94b 27bf
-0.11764396 -0.6534992

parallel_encoder.bias f4 [32]
00000000: b194 913e 0861 80bd 4a04 02bc cf42 84bd
00000010: 4c8e 8cbb 00c3 9a3e 5aca 81bd fc66 bb3c
00000020: e183 953b a9fc 37bd feb8 a63e 762d 073c
00000030: bc29 91be e02d d3bc 0e04 13bd c555 e43e
00000040: 031f 84b9 4dcc 73bc 127d 57bd e66b 04bd
00000050: ede8 4c3d c30f af3e 25be 0bbd c08e f8bc
00000060: cb74 4ebc ef0a 71bd 0401 88bc 1b7a 3fbc
00000070: 44f5 153d 20b4 21bb 1652 7a38 bf13 4d3e
0.28433755 -0.06268507 -0.007935593 -0.06458055 -0.004289424 0.30226898 -0.063374236 0.022876255
0.0045628403 -0.04491869 0.32563013 0.008250585 -0.28352153 -0.02577871 -0.03589254 0.44596687
-0.00025200107 -0.014880252 -0.05260951 -0.032329462 0.050026823 0.34191713 -0.034116883 -0.030341506
-0.012601088 -0.058848318 -0.016602047 -0.011686827 0.036610857 -0.0024674013 5.9681093e-05 0.20027064

parallel_encoder.weight f4 [32, 2]
00000000: ac6e 5dbb 61ae 74be 5621 2ebe 6cb2 943d
00000010: 9e9d 1a3d 517a 33be 53f7 363e a752 81be
00000020: b145 43be e7af a23d 9e3b d6be e3b9 963d
00000030: 78b2 093c 1cdc 9dbc cf55 44bd 1d98 ddbd
00000040: 6c64 bdbd 3162 a73d b389 88bd 06da 1e3e
00000050: c2ae f8be 10d7 b53d 51d1 483d 129a fb3a
00000060: a300 023f 911e 0cbe 2d6d 14be 68ce 70bd
00000070: fb08 94bd 3382 d73d 94c7 d5be f76b e7bd
00000080: 0be0 82be 787e d93c c97d 98be 589d d83d
00000090: 22b3 013e 9764 3b3e 2e9a 383e 3f3d b0bd
000000a0: 369d 953e 80ed 4ebe 54fe 0cbf 4736 993e
000000b0: 25a5 7cbe 38b2 413e 054a f3bd 1d4b 2fbe
000000c0: 4ec2 583e a4e8 863e fbcd 40be 43bb 943e
000000d0: 313d 22bc eff8 633e 9d95 0f3d c5fb aa3d
000000e0: 69f8 0a3e 6023 4ebe be95 d73d ffdd afbe
000000f0: 7a03 2e3e 8b19 a7bd 1e49 98be 9f7e 563e
-0.003378789 -0.23894645 -0.17004904 0.07260594 0.03774797 -0.17527129 0.17867784 -0.2525837
-0.19069554 0.07943707 -0.4184236 0.07359674 0.008404367 -0.019269995 -0.047933396 -0.10820029
-0.092476696 0.081730254 -0.06666889 0.15512857 -0.4857083 0.088789105 0.049027745 0.0019195697
0.5078222 -0.13683535 -0.14494772 -0.058790594 -0.072282754 0.105228804 -0.4175383 -0.112998895
-0.25561556 0.026549563 -0.29783466 0.10576886 0.1266599 0.1830009 0.18027565 -0.08605432
0.29221505 -0.20207787 -0.55075574 0.29924223 -0.24672373 0.18915641 -0.118793525 -0.17118497
0.21167871 0.26349366 -0.18828575 0.2904912 -0.0099022845 0.2226293 0.03505479 0.083488025
0.13571323 -0.20130682 0.10526608 -0.34349057 0.16993514 -0.08159169 -0.29743284 0.2094674
